dataset/fashion/fs2818_m394/gt_params.npz (npz, 1358 bytes, 3 tensors)

pose f4 [1, 72]
3.1046414 0.07287843 -0.2376869 -0.30286613 -0.051949646 0.014448423 -0.43611825 -0.15516295
0.11472884 0.15230554 0.041328628 -0.0032507651 0.5888353 0.06731248 -0.09469793 1.075897
-0.29056016 0.20276718 -0.07268714 -0.010893943 -0.07336307 0.11404015 0.16140993 -0.03959884
-0.010955095 -0.24265364 0.28926423 0.090724975 0.022855926 0.03303209 -0.40524742 0.048155043
0.12741244 -0.020029057 0.14886954 -0.448468 -0.10401627 -0.30717474 -0.055400603 0.0017749405
-0.076700136 -0.16490349 0.101822935 0.27770367 0.43350026 0.006723184 -0.16911207 0.10017714
0.2514977 -0.36227843 -1.0048116 0.11263727 0.3389938 0.9172231 0.22536041 -0.946378
0.10299676 0.19185093 0.59961325 -0.02706639 0.20093398 -0.08324276 -0.37889037 0.8114265
-0.18444389 -0.11027413 -0.82552475 -0.34280992 -1.699122 -1.0654455 0.3435026 1.0715595
00000000: 72b2 4640 4941 953d 3264 73be 4511 9bbe
00000010: 27c9 54bd 14b9 6c3c e44a dfbe 09e3 1ebe
00000020: f4f6 ea3d fcf5 1b3e 3548 293d ca0a 55bb
00000030: e9bd 163f 20db 893d fdf0 c1bd feb6 893f
00000040: 4dc4 94be 33a2 4f3e ffdc 94bd 827c 32bc
00000050: 613f 96bd e28d e93d a548 253e 6532 22bd
00000060: 007d 33bc 327a 78be 711a 943e 04ce b93d
00000070: 5a3c bb3c a84c 073d 977c cfbe 393e 453d
00000080: 6878 023e fa13 a4bc 4271 183e 999d e5be
00000090: 7b06 d5bd 0246 9dbe beeb 62bd 1fa5 e83a
000000a0: f614 9dbd 76dc 28be 8b88 d03d 2d2f 8e3e
000000b0: bff3 dd3e 284e dc3b b72b 2dbe ac29 cd3d
000000c0: 4ec4 803e 8f7c b9be ab9d 80bf 5eae e63d
000000d0: 9890 ad3e 22cf 6a3f e1c4 663e d445 72bf
000000e0: f7ef d23d 9274 443e 4180 193f 55ba ddbc
000000f0: a3c1 4d3e 2e7b aabd ebfd c1be a6b9 4f3f
00000100: dcde 3cbe 67d7 e1bd 9755 53bf c884 afbe
00000110: d47c d9bf 8560 88bf 93df af3e dd28 893f

shape f4 [1, 10]
0.31526804 0.55762553 0.4871465 0.87952036 0.92810667 0.514421 -0.59721816 0.3222095
0.76396847 0.15550971
00000000: d06a a13e 8cc0 0e3f 446b f93e 3f28 613f
00000010: 6698 6d3f 18b1 033f 4ae3 18bf a5f8 a43e
00000020: 7093 433f f03d 1f3e

global_t f8 [1, 3]
0.01281518207389537 0.11526581691804204 9.765249001224243
00000000: 2084 329f d83e 8a3f 9f7c 0282 0f82 bd3f
00000010: 0d1c 93b7 ce87 2340
