dataset/fashion/fs5986_m394/gt_params.npz (npz, 2756 bytes, 5 tensors)

pose f4 [1, 72]
000000 4d 09 39 40 07 3f da 3d 05 c5 94 be c2 8e a8 bf
       2.8911927 0.10656553 -0.29056564 -1.3168566
000010 ce c0 09 3d ff f9 91 3e 50 a7 1b bf d9 28 0e be
       0.03363114 0.28511044 -0.60802174 -0.1388277
000020 09 c5 33 be 65 bb 34 3f 01 6c a1 3c bd 3a 36 bc
       -0.17555632 0.7059844 0.01970482 -0.011122403
000030 20 73 db 3f dc eb 7f 3e fb ae b6 be 73 9b 62 3f
       1.7144508 0.24992317 -0.35680375 0.88518447
000040 5e ce ca bd 96 f6 da 3d cc 02 8d 3c c1 1a 58 bd
       -0.09902643 0.10691564 0.017213248 -0.05275989
000050 b4 b9 5e bb 72 75 d8 3d 61 81 be 3d 58 7c 35 be
       -0.00339852 0.10569276 0.09302021 -0.17723215
000060 34 94 d8 3d e3 c8 d4 bd eb 1a 0e 3e cd 3f 39 3c
       0.105751425 -0.103898786 0.13877456 0.011306715
000070 fd a0 b2 bc 98 33 5e 3c 62 4a ab be e3 4d a1 3d
       -0.02180528 0.013562106 -0.33455187 0.07876184
000080 eb e3 91 3e 3e 2d 95 be 30 87 85 bd ca 54 89 be
       0.284942 -0.2913608 -0.065199256 -0.268225
000090 f0 12 5b bd 4f c9 8b bc 03 b5 94 3d 91 6c c2 3c
       -0.053484857 -0.017063765 0.07261088 0.02373341
0000a0 cb ce 02 bf e9 55 2a be 6f e4 9a 3c 74 17 cc 3e
       -0.5109679 -0.16634335 0.018907754 0.39861643
0000b0 f0 a9 ed 3d bd f3 9c bd d2 73 ff 3c 17 77 8b 3d
       0.11604679 -0.07663677 0.031183157 0.06809824
0000c0 3f 1a d4 3d 65 0c 0b bf 00 92 5a bf cc 65 14 3e
       0.103565685 -0.5431579 -0.8537903 0.14491957
0000d0 af 91 c1 3e ff 87 60 3f 6b 3e 95 3e 56 7b 68 bf
       0.3780646 0.87707514 0.29149184 -0.90813196
0000e0 be 71 97 3d 0a 9f 95 3e 93 71 6f 3f f7 7b e7 bd
       0.073947415 0.292229 0.93532676 -0.11302941
0000f0 a6 e5 06 3e 7a bd 9c bd 81 29 54 3e 38 59 0e 3e
       0.13173541 -0.07653327 0.20718957 0.13901222
000100 e8 be 6e 3d f8 7c 68 be 6b 2c 32 be 05 28 a1 bd
       0.05828753 -0.22703922 -0.17399757 -0.07868961
000110 77 c0 43 be 9d f6 4f be 20 60 b7 3d 13 1f 50 3e
       -0.19116388 -0.20308919 0.08953881 0.20324354

shape f4 [1, 10]
000000 a8 fa 0d 3e 61 cb 56 3f 94 1e 89 3d 1c ae 63 3f
       0.13865149 0.8390408 0.066952854 0.88937545
000010 77 fc a4 3d f8 7d aa bc 8e ad 89 be aa 42 de 3d
       0.08055966 -0.02081202 -0.26890224 0.10852559
000020 f4 0a 23 3f a6 31 e9 3d
       0.6368859 0.11386423

global_t f4 [1, 3]
000000 fd f1 f9 3d 96 4c 29 3e e3 07 26 40
       0.12204359 0.16533121 2.5942314

pred_joints f4 [1, 45, 3]
000000 72 d9 f3 3d 40 e3 83 bd 8a 66 27 40 9d ff 32 3e
       0.11906709 -0.06439829 2.6156335 0.17480321
000010 20 16 ef 3c 95 e5 25 40 a6 1f 52 3d 10 0b ae 3c
       0.029185355 2.5921376 0.051299714 0.02124551
000020 3a 6c 27 40 e3 23 06 3e b6 f4 28 be 45 62 2a 40
       2.6159806 0.13099627 -0.164996 2.662248
000030 98 5f 61 3e 60 c2 d1 3c fe ac 0d 40 1e 3f 07 be
       0.22009122 0.02560538 2.2136836 -0.13207671
000040 2d 63 89 3e 2e 1d 18 40 2e 44 07 3e 33 e9 94 be
       0.26833478 2.376781 0.13209602 -0.29084167
000050 f0 e3 25 40 d6 f9 c3 3d b4 f9 c9 3e 5f 9b 14 40
       2.5920372 0.09569137 0.3944832 2.321983
000060 67 2d be bd cc 44 2b 3f e0 26 1a 40 04 5d 01 3e
       -0.092860036 0.6690185 2.4086227 0.12633139
000070 a8 8d a8 be 6c 03 23 40 da 13 bd 3d 89 b8 f9 3e
       -0.32920575 2.5470839 0.09232302 0.48773602
000080 e8 4f 0e 40 ce b9 2c be ae 46 3c 3f 92 50 14 40
       2.223627 -0.16867754 0.7354535 2.3174176
000090 a6 b2 f8 3d 9e d0 08 bf f3 87 1e 40 d0 88 4f 3e
       0.121434495 -0.53443325 2.4770477 0.20267034
0000a0 49 16 e3 be ae d2 1f 40 e2 b1 57 3d 65 27 e9 be
       -0.4435294 2.4972339 0.052659877 -0.45537868
0000b0 4e b3 22 40 84 41 d8 3d 24 42 13 bf 54 a2 19 40
       2.542194 0.10559371 -0.575228 2.4005327
0000c0 1e c0 8c 3e e9 52 dc be 73 e0 1b 40 8e 6f 42 bd
       0.27490324 -0.43032005 2.4355743 -0.047469668
0000d0 21 cf ee be af ed 21 40 12 5c 9a 3e aa ad 2a be
       -0.46642402 2.530132 0.3014837 -0.1666781
0000e0 df 07 1b 40 e0 2e 19 be 8c 84 72 be 9d 5c 25 40
       2.4223554 -0.14959288 -0.23683375 2.5837777
0000f0 1f bc ec 3d 10 ed 78 bc 98 cf 15 40 ab 05 e7 bd
       0.11559319 -0.015193239 2.3407955 -0.11280378
000100 50 40 e6 bc fd db 1b 40 e2 be 72 3d f0 2b 1e 3d
       -0.028106838 2.435302 0.05926407 0.03861612
000110 3b 72 13 40 b7 f4 df bd e0 f7 11 3d 9e 38 18 40
       2.303847 -0.109353475 0.035636783 2.3784556
000120 9c 41 89 3d 68 b0 18 bf f7 d3 12 40 a4 f1 24 3d
       0.06701967 -0.59644175 2.2941873 0.04026951
000130 98 ec 23 bf 9f 0d 15 40 3e 42 d4 3d 64 c5 24 bf
       -0.6403289 2.3289564 0.10364197 -0.64363694
000140 a7 a4 13 40 78 63 f7 3c 82 da 24 bf 84 aa 1b 40
       2.3069246 0.030198798 -0.64395916 2.4322824
000150 c4 d3 2e 3e 12 ed 26 bf b2 9d 18 40 aa db 94 3d
       0.1707297 -0.6520549 2.384625 0.0726846
000160 d5 a6 f7 3e d4 87 09 40 61 13 03 3e fe 57 01 3f
       0.4836947 2.1489153 0.12800361 0.5052489
000170 af 15 0d 40 31 c0 b8 3d 13 ec d3 3e fa df 18 40
       2.2044485 0.090210326 0.41391048 2.3886704
000180 92 96 36 be a4 30 3b 3f bb 40 0f 40 f0 ab 59 be
       -0.17830876 0.73121095 2.2383258 -0.21256995
000190 f6 59 3e 3f 03 60 14 40 a2 a1 7e bd 96 ed 34 3f
       0.7435602 2.31836 -0.062165864 0.7067503
0001a0 1d a1 1d 40 2c 84 d2 bc 00 9d ef bb 31 63 15 40
       2.4629586 -0.02569779 -0.007312417 2.3341792
0001b0 f6 81 2d bd d0 5f 6a 3d 80 48 12 40 2c 91 fa bc
       -0.04236027 0.05722028 2.285675 -0.030586801
0001c0 50 b2 b3 3d 1c 52 11 40 60 bc 3a bb d8 d9 ce 3d
       0.08774245 2.2706366 -0.0028493628 0.10100144
0001d0 0d 8d 11 40 fa 76 1b 3d 90 4a db 3d cc 3b 12 40
       2.274234 0.03795526 0.10707581 2.2848997
0001e0 30 6f e6 bb 40 2b 7b 3c 4c c5 16 40 e2 f4 66 bd
       -0.0070322976 0.015330136 2.355792 -0.056385882
0001f0 fc 83 ae 3d c8 e5 13 40 df b2 a9 bd 34 7d dd 3d
       0.08521268 2.3108997 -0.0828607 0.10814896
000200 c4 04 14 40 e3 9a db bd 64 50 e8 3d 72 59 15 40
       2.3127909 -0.10722902 0.11343458 2.3335843
000210 ec 77 07 be d4 81 db 3d ff a9 17 40
       -0.1322934 0.10718122 2.3697507

detection_all f4 [1, 8]
000000 00 00 00 00 a0 8b c6 43 76 f1 97 41 84 06 35 44
       0.0 397.09082 18.9929 724.1018
000010 c2 9c 79 44 0e cd 7f 3f 4e e7 7f 3f 00 00 00 00
       998.44934 0.99922264 0.9996232 0.0
