dataset/fashion/fs4486_m394/gt_params.npz (npz, 2744 bytes, 5 tensors)

pose f4 [1, 72]
000000 3b 4f 2e 40 bf 25 98 3e 9a 14 61 bf f8 9e 89 bf
       2.7235858 0.29716298 -0.8792206 -1.0751638
000010 96 0c 2f be fd 50 3b 3e 5b 0c 05 bf a4 cb c6 bc
       -0.17094645 0.18292613 -0.5197198 -0.024267025
000020 6b aa 40 be d7 41 06 3f 3e 18 98 3d d3 0f 57 bd
       -0.1881501 0.52444214 0.07426499 -0.052505326
000030 23 01 05 40 38 5e 48 bc 8c 24 41 be 0a 01 13 3f
       2.0781944 -0.012229495 -0.18861598 0.5742346
000040 65 9b cb bb ef a4 2f 3d d3 76 91 3d 0e 92 ab 38
       -0.006213593 0.042881902 0.07102742 8.18112e-05
000050 24 1d d0 bb e4 b7 b8 bc 33 9d 2c 3d 2a da b8 bd
       -0.00635113 -0.022548623 0.042142104 -0.090259865
000060 e6 fb 32 3e 6b ed a7 bd ae e6 22 3e ea a0 26 3d
       0.17478904 -0.08199581 0.1590831 0.040680803
000070 e5 91 15 3c 44 89 93 3c 35 1a cb be 1c 84 d2 3d
       0.009129022 0.01800979 -0.39668432 0.10279104
000080 8e 6d 3c 3e 28 10 a4 be 33 2d 1a bd b6 5d a3 be
       0.18401167 -0.32043576 -0.03764076 -0.31907433
000090 5b a8 1c 3d e8 c7 5a 3e e6 12 44 3d 44 ff e1 3c
       0.038246494 0.2136532 0.047869585 0.02758754
0000a0 70 36 c4 be f8 b4 3f be d6 97 87 3d f3 a8 95 3e
       -0.38322783 -0.18721378 0.06620757 0.2923046
0000b0 bc 5f 80 3e e5 cd 8a bc 2f 05 2d 3e 93 4d 00 3d
       0.2507304 -0.016943881 0.16896509 0.03132398
0000c0 1b e2 0e 3e a9 90 ef be 21 6e 70 bf 88 a2 08 3e
       0.1395344 -0.46790054 -0.93918043 0.13343251
0000d0 d1 09 b3 3e a3 c0 88 3f 01 07 98 3e dc 1d 6f bf
       0.34968427 1.0683788 0.29692844 -0.93404937
0000e0 f1 14 10 3e 85 9a 32 3e c2 a0 3e 3f ed af 4a be
       0.14070489 0.17441757 0.74464047 -0.19793673
0000f0 ab f3 c6 3d ba ee 84 bd 0a b8 33 3e d6 8e 9a 3d
       0.09714445 -0.06490846 0.17550674 0.07546775
000100 57 83 cd 3a 17 b9 32 be ff 71 06 be 67 3e 8a bd
       0.0015679401 -0.17453419 -0.13129424 -0.067501836
000110 fb 78 36 be bd 57 2c be 06 fc ad 3d 9f 65 54 3e
       -0.17819588 -0.16830344 0.08495335 0.2074189

shape f4 [1, 10]
000000 5a 14 fd bd 5b 04 82 3f bd 58 7c 3e 49 08 83 3f
       -0.123573974 1.0157579 0.24643226 1.0236903
000010 b0 44 93 3b 16 5f c7 3d b8 2d b4 be e3 89 0f 3e
       0.004494272 0.09734933 -0.3519113 0.14017443
000020 30 9b 62 3f e4 54 42 3e
       0.8851805 0.18977696

global_t f4 [1, 3]
000000 b0 70 04 3e 1a 15 25 3e 39 80 23 40
       0.12933612 0.16121331 2.554701

pred_joints f4 [1, 45, 3]
000000 5e 4b 01 3e dc aa 87 bd c9 c4 24 40 d6 c6 21 3e
       0.12626407 -0.06624386 2.5745108 0.15798506
000010 00 62 ef 3c 3c e3 21 40 f6 76 6f 3d 20 20 5a 3c
       0.029221535 2.5294943 0.05846306 0.013313323
000020 7e 7c 26 40 59 29 28 3e 1a 66 25 be fa 29 27 40
       2.6013484 0.16422023 -0.1615223 2.611937
000030 c8 cd 9f bc 3c 42 b4 3d 14 00 0d 40 30 e0 5b be
       -0.019507304 0.08801696 2.2031298 -0.2147224
000040 43 aa 7d 3e 8d c8 1d 40 60 34 2e 3e b4 67 98 be
       0.24771981 2.4653656 0.17012167 -0.2976662
000050 e2 3b 24 40 a7 ca 12 3e 8e d0 bb 3e cd d8 1b 40
       2.566155 0.14335118 0.36682552 2.4351075
000060 7c 58 a0 be c8 e6 21 3f bd 4b 1d 40 c5 2c 22 3e
       -0.31317508 0.6324277 2.4577477 0.1583739
000070 7f 4e af be ed ec 21 40 b4 c9 fd 3d f3 6e f8 3e
       -0.34239575 2.5300858 0.123919874 0.48522148
000080 4c 1e 18 40 a0 57 d7 be e2 0b 2a 3f bb a8 18 40
       2.3768492 -0.4205904 0.6642438 2.3852985
000090 1c 6c 28 3e 22 5b 0d bf 7a 21 1f 40 50 c7 6d 3e
       0.1644749 -0.5521718 2.4864182 0.23220563
0000a0 47 4f e7 be 39 4c 1e 40 9f bc db 3d 57 67 f2 be
       -0.4517767 2.4734023 0.10729336 -0.47344467
0000b0 4f c3 23 40 6c 5d 13 3e d0 b1 18 bf b5 74 1a 40
       2.5587957 0.14391106 -0.5964632 2.4133732
0000c0 90 64 94 3e 8d 87 e1 be b2 a0 19 40 18 37 74 3c
       0.28982973 -0.4404873 2.400433 0.0149057135
0000d0 d5 99 f9 be 65 ce 25 40 9a 09 9b 3e 54 f3 37 be
       -0.48750177 2.5907223 0.30280763 -0.17963916
0000e0 c8 ae 18 40 40 cf a9 bc 7e 20 7f be 5c af 2a 40
       2.3856678 -0.020728707 -0.24914739 2.666953
0000f0 bc df d0 3d a4 06 42 bd 62 99 14 40 00 34 b2 bd
       0.10198924 -0.047369614 2.3218617 -0.087013245
000100 e4 2d 1b bd bb ac 22 40 ec 9c 22 3d 80 55 db 3a
       -0.03788556 2.5417926 0.039700434 0.0016733855
000110 7e c3 12 40 5e 55 f1 bd 10 12 fc 3c 88 5a 20 40
       2.293182 -0.117838606 0.030770332 2.5055256
000120 fd 7c e6 3d ac 76 1d bf 37 83 13 40 5f 2c ab 3d
       0.112543084 -0.61509204 2.3048837 0.083580725
000130 44 a6 28 bf 9f 89 15 40 68 cb 17 3e 70 a9 29 bf
       -0.658787 2.3365247 0.14823687 -0.66274166
000140 02 69 14 40 9d 5d 89 3d 7e db 29 bf 4c 0e 1c 40
       2.3189092 0.067073084 -0.66350543 2.4383726
000150 87 84 53 3e e6 55 2c bf 68 97 19 40 68 52 86 3d
       0.20656024 -0.6731857 2.399866 0.065586865
000160 74 d2 02 3f 61 94 15 40 40 e3 12 3e 97 aa fe 3e
       0.51102376 2.3371813 0.14344501 0.49739525
000170 46 cf 15 40 a4 61 41 3e 87 62 b7 3e 56 05 1f 40
       2.340776 0.18884903 0.35817358 2.4847007
000180 3c 63 e3 be d9 46 26 3f 2d 04 14 40 d4 a7 ec be
       -0.44411647 0.64951855 2.3127549 -0.46221793
000190 18 66 28 3f 50 53 19 40 18 41 92 be e0 d5 2e 3f
       0.6578078 2.39571 -0.28565288 0.682951
0001a0 40 16 20 40 d8 ae 10 bd cc 67 44 bd 83 57 15 40
       2.501358 -0.035322994 -0.04795055 2.3334663
0001b0 90 cd 79 bd a0 04 75 3c ba 5e 12 40 50 87 57 bd
       -0.060987055 0.014954716 2.2870317 -0.05261928
0001c0 00 35 37 3d 38 47 11 40 e0 61 d2 bc 88 cc 6f 3d
       0.04472828 2.2699718 -0.025681436 0.058544666
0001d0 0d 38 11 40 a0 fc 80 3c c4 2c 88 3d 01 8e 11 40
       2.269046 0.015745461 0.06649163 2.2742922
0001e0 aa 06 81 bd c0 9f 55 3c da d6 1a 40 88 4c f8 bd
       -0.06300099 0.013038576 2.4193635 -0.12123972
0001f0 74 60 b3 3d c4 5f 1b 40 40 9e 0c be cc 0e df 3d
       0.08758631 2.42772 -0.13732243 0.10891494
000200 e7 c3 1c 40 8c d2 10 be d4 10 e3 3d 27 cb 1e 40
       2.449457 -0.14142817 0.11087194 2.4811494
000210 3a 6f 0b be 04 47 cc 3d 11 71 21 40
       -0.13616648 0.09974483 2.522526

detection_all f4 [1, 8]
000000 00 00 00 00 db 4d 7c 43 c5 ab 93 41 b6 36 35 44
       0.0 252.30412 18.458872 724.85486
000010 ec 79 76 44 37 ee 7f 3f 2a fe 7f 3f 00 00 00 00
       985.905 0.9997286 0.999972 0.0
