dataset/fashion/fs0000_m394/gt_params.npz (npz, 1358 bytes, 3 tensors)

pose f4 [1, 72]
0	0xc047d289	-3.122225
1	0xbdfc844c	-0.12329921
2	0xbe8b7adb	-0.2724217
3	0xbec4196a	-0.3830064
4	0xbd2f4d2b	-0.042798202
5	0x3d6a5ef5	0.057219464
6	0xbe80152e	-0.2501616
7	0xbd7b92c8	-0.06141928
8	0xbe517cfa	-0.20457831
9	0x3e02e4c4	0.1278258
10	0x3d075bb1	0.033046428
11	0x3d86673c	0.06562659
12	0x3ef2302d	0.4730238
13	0xbbef5649	-0.007303987
14	0xbd4bbcd9	-0.049740646
15	0x3ea8ca8d	0.32967034
16	0x3d35a8c2	0.044350393
17	0x3c597c42	0.013274254
18	0xbd359ab7	-0.044337
19	0xbd85752f	-0.065164916
20	0xbd842470	-0.064522624
21	0x3dcb6916	0.09932153
22	0x3e34be5e	0.17650744
23	0xbe0bfb63	-0.13670115
24	0x3d024ef2	0.03181357
25	0xbe435c7c	-0.19078249
26	0x3e966d6e	0.29380363
27	0x3d7fc1b6	0.062440597
28	0x3cdfecbc	0.027334563
29	0x3bd327e0	0.0064439625
30	0xbea01898	-0.31268764
31	0xbd80d485	-0.06290535
32	0x3e66de1d	0.22545667
33	0x3c6f8c27	0.014620817
34	0x3dd25a52	0.102711335
35	0xbeeabfc9	-0.45849445
36	0xbdb68113	-0.08911338
37	0xbe8b8731	-0.2725158
38	0xbddd48ed	-0.10804925
39	0x3c098041	0.0083923945
40	0xbe1abb38	-0.15110481
41	0xbec6364a	-0.38713294
42	0x3d9b74c5	0.075906314
43	0x3e734ec7	0.2376052
44	0x3eefa02a	0.46801883
45	0xbb91a54c	-0.0044447538
46	0x3d7b805b	0.061401706
47	0x3e07ec65	0.13273771
48	0x3e433ecf	0.19066928
49	0xbe810445	-0.2519857
50	0xbf848242	-1.0352252
51	0x3d8d7719	0.06907482
52	0x3e8f7653	0.28019962
53	0x3f75b5c1	0.9598046
54	0xbd866299	-0.06561775
55	0xbeeddda7	-0.4645817
56	0x3dcadfc5	0.09905962
57	0xbcca9743	-0.02473033
58	0x3ec1193c	0.37714565
59	0xbd9be443	-0.07611897
60	0x3e0e3329	0.13886704
61	0x3ee036dd	0.43791857
62	0xbdf18280	-0.11792469
63	0x3f4180fe	0.7558745
64	0xbe2a7e27	-0.16649686
65	0x3d884a85	0.066548385
66	0xbf45276e	-0.7701329
67	0xbeaf7771	-0.34270814
68	0xbf624332	-0.8838378
69	0xbf51779b	-0.8182313
70	0x3eb340f3	0.3501049
71	0x3eebbc73	0.46042213

shape f4 [1, 10]
0	0x3e8acded	0.27110234
1	0x3f0d284a	0.551396
2	0x3ee90896	0.45514363
3	0x3f6225ce	0.88338935
4	0x3f3a100c	0.72680736
5	0x3f15f236	0.5857271
6	0xbf53a680	-0.82675934
7	0x3dcd489b	0.10023614
8	0x3f582609	0.8443304
9	0xbda49fb3	-0.08038273

global_t f8 [1, 3]
0	0x3fb5828988e8be27	0.0840230902911051
1	0x3fc2e232762bc12b	0.14752798814834853
2	0x4023061dcecdcd72	9.511946165678385
