dataset/fashion/fs4235_m394/gt_params.npz (npz, 1358 bytes, 3 tensors)

pose f4 [1, 72]
000000 67 d5 47 c0 6a 63 02 be 7d f7 49 bc 84 aa 06 bf
       -3.1224 -0.12733236 -0.012327072 -0.52603936
000010 3f 5d 54 bd e7 4c 15 3e 91 83 c6 be 34 7d 05 bd
       -0.05184674 0.14580117 -0.38772252 -0.032590106
000020 43 7a cc bd 29 f5 64 3e 7b fa 24 3d b9 2a e0 3c
       -0.09984257 0.22359146 0.04027794 0.027364122
000030 e8 76 31 3f e6 23 0b bd 9c b9 93 bd 5e 37 17 3f
       0.6932206 -0.033969782 -0.072131366 0.5906886
000040 da a9 18 3d 2e b0 4e 3d 82 11 da bd 59 f2 a3 bd
       0.037271358 0.050460987 -0.106478706 -0.080052085
000050 32 5d 53 bd f9 89 95 3d 61 e2 52 3e 17 78 fc bd
       -0.05160255 0.07301707 0.20594169 -0.12327593
000060 d1 f0 e7 bc c5 a1 39 be e9 44 8a 3e 74 90 f7 3d
       -0.028313072 -0.18128116 0.270057 0.12088099
000070 93 96 0d 3d 51 d0 a1 3c b8 59 b5 be d9 6a a5 bd
       0.034567427 0.019752653 -0.35420012 -0.0807702
000080 74 80 51 3e 41 07 ac bd b1 60 9a 3d 4b 6b ee be
       0.20459157 -0.08399821 0.07537974 -0.46566233
000090 7e 31 dc 3a c4 00 dd be 67 34 55 3c 5c 8d d0 bc
       0.0016799418 -0.43164647 0.013012982 -0.02545803
0000a0 34 3e 56 be 3f 46 6c be 9a af d0 3c 83 0c aa 3e
       -0.20922166 -0.23073672 0.025474358 0.3321267
0000b0 df fd b9 3e 3b 2f bf 3c 14 e2 45 be 97 89 3a 3e
       0.363265 0.02333795 -0.19324523 0.18216549
0000c0 4f 0a 4b 3e e3 4e 90 be 99 83 87 bf 84 67 ef 3d
       0.19828151 -0.28185186 -1.0587035 0.11689666
0000d0 11 ee bc 3e 25 bd 6a 3f 7c d5 64 3d 6f bd 09 bf
       0.3690038 0.9169486 0.055867657 -0.5380468
0000e0 54 76 85 3d e1 fc 41 3e 06 dd 02 3f f6 91 17 bb
       0.0651671 0.18944122 0.51118505 -0.002312777
0000f0 8d 93 a3 3e 9e 68 60 3e f8 f6 72 bc de 94 04 3f
       0.3194851 0.21914908 -0.01482939 0.51789653
000100 8c a5 aa bd a9 3a 09 3c 4d c6 6c bf 47 36 99 be
       -0.08332357 0.008375802 -0.9249008 -0.29924223
000110 27 72 77 bf 80 8f 80 bf 0e b4 9b 3e c4 f2 7d 3f
       -0.9665856 -1.0043793 0.30410808 0.99198556

shape f4 [1, 10]
000000 56 57 c7 3e 08 33 09 3f 37 59 f8 3e fa 4a 4e 3f
       0.3893382 0.5359349 0.48505566 0.80583155
000010 b2 bc 4d 3f 6f e7 1a 3f 28 1f 12 bf cb f7 30 3e
       0.8036605 0.6050939 -0.5707879 0.17282026
000020 1c b4 6e 3f b9 17 70 3e
       0.93243575 0.2344655

global_t f8 [1, 3]
000000 fa 4f 54 6e b9 71 85 3f c9 f3 47 95 ec 55 c3 3f
       0.010470818213924805 0.15105969704737124
000010 69 31 f3 c8 f3 ec 21 40
       8.962797431646964
