dataset/fashion/fs2804_m394/gt_params.npz (npz, 1358 bytes, 3 tensors)

pose f4 [1, 72]
000000 0c c8 47 40 fe 2e cd 3d 68 d0 a9 bd 3f 82 be be
       3.121585 0.10018729 -0.082917035 -0.37208745
000010 5f c3 1b bd 76 00 31 3d 5e fe 8d be e1 8e 1e bd
       -0.038028117 0.04321333 -0.2773313 -0.03871048
000020 4c 30 f6 bc 7f d8 3c 3e 99 48 04 3d d7 69 0e 3d
       -0.030052327 0.18441962 0.032295797 0.034768905
000030 99 d0 0b 3f 4c 81 3c 3d a4 f1 56 bd f4 5c e7 3e
       0.5461517 0.046021745 -0.05247654 0.45188105
000040 6c 90 73 ba 97 f8 1b 3d db d2 11 be cc a2 81 bd
       -0.0009291235 0.03807887 -0.14240591 -0.06329879
000050 15 b5 81 bd 95 f7 fa 3d c9 5d 40 3e 26 01 eb bd
       -0.06333367 0.12254254 0.18785776 -0.114748284
000060 ef d6 bc 3b de 8f 56 be 46 aa 7d 3e d4 47 f5 3d
       0.005762927 -0.20953318 0.24771985 0.11976591
000070 63 e4 7b 3c c4 d6 03 3d fe fd c0 be 38 f5 34 bd
       0.015374276 0.03218724 -0.3769378 -0.04417917
000080 57 bf 58 3e 1c ce a3 bd ba 60 c4 3d c6 94 dc be
       0.2116674 -0.079982966 0.09588762 -0.43082255
000090 e6 e3 f2 bd 07 0b 2f be f0 d2 bd bd ef f8 88 bc
       -0.118598744 -0.1709405 -0.09268749 -0.016720263
0000a0 42 34 29 be c3 91 a7 be 55 27 a9 3d 06 53 53 3e
       -0.16523841 -0.32728395 0.08259455 0.2063714
0000b0 db 39 e4 3e 1f 1f 92 bc 71 55 31 3e 17 9f 14 3e
       0.4457539 -0.017837105 0.1731775 0.14513813
0000c0 f3 26 55 3e ac af 7d be 2b b6 83 bf ec 86 b8 3d
       0.20815639 -0.24774045 -1.0289968 0.09010109
0000d0 c8 de 94 3e 00 3e 72 3f 6a 82 0e bc 5b 60 f2 be
       0.2907622 0.94625854 -0.008698085 -0.47339138
0000e0 92 43 3d 3d 2b 9e 30 3d 20 2a db 3e 2b 30 67 bd
       0.04620702 0.04311959 0.42805576 -0.05644242
0000f0 8a 28 be 3e 9c 09 5d 3e e7 0b 87 bd a5 3e 0e 3f
       0.37140304 0.21585697 -0.06594067 0.5556434
000100 1e d3 67 be e4 85 bc 3b d8 9f 80 bf ae 2a b8 be
       -0.22639129 0.0057532657 -1.004878 -0.35970062
000110 8e ef 76 bf d1 99 7a bf 5e d9 dd 3e 17 37 70 3f
       -0.9645928 -0.97890955 0.433299 0.9383406

shape f4 [1, 10]
000000 72 c2 98 3e d0 c6 01 3f aa f3 08 3f e8 72 5a 3f
       0.2983585 0.5069399 0.534968 0.85331583
000010 62 b8 1b 3f b1 b5 f8 3e f2 f7 51 bf 09 09 60 3e
       0.6082822 0.4857612 -0.8201896 0.21878447
000020 04 2f 6a 3f 50 22 3d 3e
       0.9147799 0.1847012

global_t f8 [1, 3]
000000 11 72 9e 71 7a 1d 96 3f d5 14 d1 47 0f 11 c3 3f
       0.02159682577586081 0.14895812040973647
000010 88 32 90 d6 8f fe 21 40
       8.997191147901745
