dataset/fashion/fs7818_m394/gt_params.npz (npz, 2756 bytes, 5 tensors)

pose f4 [1, 72]
00000000: 3bca 47c0 3609 f6bc 731b 17bd 6a67 1ebe
00000010: 257f 8f3c f645 7d3c d822 d8bd ac29 2abc
00000020: b76d ee3a 71c4 353e 34c4 b7bc 35ef 8f3c
00000030: 9969 c03e 9934 0a3d 5be0 2fbc 57ba 973e
00000040: 686c 863a 794d 1f3c cde7 2a3c 2a66 d5bc
00000050: 9542 363c eeb3 5f3b 3f91 2a3e 8c51 b0bd
00000060: 1851 1cba 2c76 1abe 1b71 8b3d df07 413d
00000070: 9817 4cbc a0e6 1f3c 4e49 adbd d6ce b43b
00000080: 88aa 083e b448 85bd e255 abbc 05bf 06be
00000090: 70c1 48bd 6b30 f1bd 7ad8 b23c fc29 993d
000000a0: ddba 49be 00fb a2be 2f4f 7e3d 8c43 553e
000000b0: ee21 913e bcf8 fd3d 7711 8cbd b240 8c3d
000000c0: 7be7 553e 2d1f 9abe f8b6 7fbf 892d 543e
000000d0: 00ef 973e e423 813f 8156 923e 405b e2be
000000e0: 22df 1dbd 8cc0 943e 2cc3 d83e 6e04 4f3d
000000f0: e194 e53d 194c e2bd 58d5 4d3d bc8f 053e
00000100: cfa1 d33d 2ed3 83bd 08f0 27be 7228 87bd
00000110: b3ce 29be d91e 22be 2ce9 953d cd9f 253e
-3.1217182 -0.030033689 -0.036891412 -0.15469137 0.017516682 0.0154585745 -0.10553521 -0.010385912
0.0018190657 0.17750718 -0.022432424 0.017570117 0.37580565 0.033741567 -0.010734643 0.29634354
0.0010255696 0.009723061 0.010431242 -0.026049692 0.011124273 0.0034134346 0.1665697 -0.08609304
-0.00059630116 -0.15084141 0.068086825 0.047126647 -0.012456797 0.009759575 -0.084612474 0.005517821
0.13346303 -0.06508008 -0.020914976 -0.13158806 -0.0490126 -0.11776813 0.02183174 0.07478711
-0.19700189 -0.31832123 0.062087234 0.20826548 0.283462 0.12400958 -0.06839269 0.06848277
0.20889084 -0.3010191 -0.99888563 0.20720495 0.2967453 1.0089078 0.28581622 -0.44210243
-0.038542874 0.29053152 0.42336404 0.050541334 0.11210037 -0.11049671 0.05025229 0.13043112
0.10333597 -0.06436764 -0.16400158 -0.06599511 -0.16582756 -0.1583208 0.07319865 0.1617424

shape f4 [1, 10]
00000000: 23c8 563e 5c08 5a3f fe91 443f 0d42 9a3f
00000010: 46a2 8b3e 53fa 3fbe 50da 9dbe d825 bfbd
00000020: 95bf d23e a4ba 85bd
0.20974784 0.85169005 0.76785266 1.2051407 0.27272242 -0.18747835 -0.30830622 -0.0933339
0.4116179 -0.065297395

global_t f4 [1, 3]
00000000: 6e46 343d 0b22 373e 7595 3340
0.04401248 0.1788408 2.8059971

pred_joints f4 [1, 45, 3]
00000000: 9189 283d 5495 70bd d4f8 3440 8471 d53d
00000010: 007e 0d3d 1bd5 3540 506e c5bc b883 fb3c
00000020: 577f 3540 09a8 233d c39d 2ebe d05b 3640
00000030: 744a 113e fdd9 d13e e9a7 3240 8e48 90bd
00000040: 8814 d53e 1ba8 3340 020a 433d 6c48 a1be
00000050: be31 3440 fe66 e43d 3fbb 493f bd45 3b40
00000060: d060 6cbd d390 4c3f 498f 3b40 75b6 433d
00000070: ee53 bbbe df05 3240 8e86 223e 19a0 5f3f
00000080: 2433 3540 413c c5bd 6181 5f3f 30a1 3440
00000090: 1c38 293d ecf7 15bf 3dc5 3040 be51 fd3d
000000a0: 8645 fcbe 14d0 3140 624f 09bd a460 fabe
000000b0: 6793 3240 fe52 183d cc10 25bf 596d 2c40
000000c0: d4a2 5f3e 368a fabe 8dd8 3040 043b 0abe
000000d0: 3884 f9be f4ec 3140 3e50 8b3e 51aa 72be
000000e0: ad33 3440 dcc1 3abe f9a4 76be 69f9 3440
000000f0: 6cbc 7a3e 20ca e63b 82a4 3040 8c06 27be
00000100: 90f4 2e3c 03b9 3140 7cc1 723e a6f7 bc3d
00000110: c5e1 2f40 52c2 1ebe 1528 c13d 8ca7 3040
00000120: 2078 583b 799d 2bbf 8857 2540 f0b9 c9bc
00000130: f6e2 36bf 3b9b 2740 a9fc 213d d5e4 37bf
00000140: eb6c 2640 b429 1cbd 9ed2 36bf 002f 2e40
00000150: ba34 d23d 0aff 38bf e9ac 2b40 e051 143e
00000160: 1602 643f e735 3040 fed4 4d3e a7dd 623f
00000170: 1046 3440 ac65 d43d be0e 4f3f 6588 3f40
00000180: c27f 8dbd c11b 643f 66dc 2f40 e854 0bbe
00000190: 4dee 623f 9a88 3340 4298 69bd 1287 543f
000001a0: 18c7 3f40 ce4c 123e 4e2b b23d e03e 2d40
000001b0: b4bf 353e b7c1 2a3e 465f 2d40 f4fa 4f3e
000001c0: 4727 413e 074d 2e40 fc0c 673e 27f8 3a3e
000001d0: ea93 2f40 c4d2 803e 3f88 243e 7c58 3140
000001e0: 142a 6ebd 3e61 a13d 29ff 2d40 29f5 d1bd
000001f0: cf8c 2b3e f521 2e40 dc7d 02be f78e 403e
00000200: 8223 2f40 4cb8 1abe e3fb 3b3e 9091 3040
00000210: 48a5 32be 4ff3 243e 288f 3240
0.04114682 -0.05873616 2.8276873 0.10422042 0.03454399 2.841132 -0.024100453 0.030702457
2.8358972 0.039955173 -0.17052369 2.8493538 0.14188558 0.40986624 2.7914984 -0.07045089
0.41617227 2.8071353 0.047616966 -0.31500566 2.815536 0.11152457 0.7880134 2.9261315
-0.057709515 0.79908484 2.9306204 0.047781426 -0.3658747 2.7816083 0.15871641 0.87353665
2.8312464 -0.09630633 0.8730679 2.822338 0.041313276 -0.58581424 2.7620385 0.12369107
-0.49271792 2.778325 -0.03352297 -0.48901856 2.7902467 0.037188523 -0.64478755 2.694174
0.21839458 -0.48933572 2.7632172 -0.13499075 -0.48733687 2.7800875 0.27209657 -0.23697783
2.815654 -0.18238014 -0.2408637 2.8277228 0.2448594 0.007043138 2.7600408 -0.16311091
0.010678425 2.7769172 0.23706621 0.09226923 2.7481549 -0.15503815 0.09431473 2.7602262
0.0033030584 -0.6703716 2.5834675 -0.024624795 -0.71440065 2.6188495 0.039547596 -0.71833545
2.6003978 -0.03812571 -0.71415126 2.7216187 0.10263963 -0.7226416 2.6824286 0.14484358
0.8906568 2.75329 0.20100781 0.88619465 2.8167763 0.10370955 0.8088187 2.9926999
-0.069091335 0.8910485 2.747827 -0.13606608 0.8864487 2.8052125 -0.05702997 0.830186
2.9965267 0.14287111 0.08699666 2.7069626 0.1774891 0.16675459 2.70894 0.20310575
0.1886264 2.7234514 0.22563547 0.18258725 2.743403 0.251608 0.16067599 2.7710257
-0.058145598 0.078798756 2.7186987 -0.10251839 0.16752933 2.7208226 -0.12743324 0.18804537
2.7365422 -0.15109366 0.18357806 2.7588844 -0.17445862 0.1610844 2.7899876

detection_all f4 [1, 8]
00000000: 0000 0000 e1ed c843 8ae9 5941 74a3 2a44
00000010: 0000 8044 6fed 7f3f 30fe 7f3f 0000 0000
0.0 401.85843 13.619516 682.55396 1024.0 0.9997167 0.99997234 0.0
