dataset/fashion/fs3903_m394/gt_params.npz (npz, 2728 bytes, 5 tensors)

pose f4 [1, 72]
-3.059228 0.060890354 -0.5088987 -0.1618701 -0.021596948 -0.06838905 -0.034469783 -0.01688449
0.033256143 0.1587166 -0.005213435 0.015896268 0.16722697 0.020579405 -0.012071236 0.5330937
-0.05276935 0.020233199 0.00020761446 0.0023835967 -0.023699488 0.077739224 0.1795267 -0.11858078
0.00038909735 -0.16858998 0.063657515 0.021158947 0.0010363647 -0.015902348 -0.11559352 -0.021794362
0.19876538 -0.15031847 -0.020004636 -0.12614137 -0.10956416 -0.121796675 -0.031040741 0.057791367
-0.16206563 -0.4151569 0.04989368 0.18933102 0.35645264 0.075562574 -0.09878975 0.02162567
0.17804605 -0.29456767 -1.0154858 0.2094364 0.2869949 1.0012954 0.094219744 -0.29019
0.02990618 0.11096534 0.35149413 0.006095726 0.11127378 -0.043550674 0.00093450915 0.04571016
0.05175672 0.0077999267 -0.16363847 -0.07350143 -0.18096544 -0.1306826 0.08367404 0.16328928
00000000: 64ca 43c0 2a68 793d 2f47 02bf 47c1 25be
00000010: 15ec b0bc 8f0f 8cbd 3030 0dbd 5851 8abc
00000020: 9837 083d 9b86 223e 76d5 aabb e438 823c
00000030: 8c3d 2b3e 2496 a83c 6fc6 45bc d478 083f
00000040: ad24 58bd 18c0 a53c 15b3 5939 1e36 1c3b
00000050: 6e25 c2bc be35 9f3d d9d5 373e 7bda f2bd
00000060: c3ff cb39 daa2 2cbe df5e 823d 8755 ad3c
00000070: a1d6 873a a445 82bc 4cbc ecbd 178a b2bc
00000080: 2789 4b3e 16ed 19be c3e0 a3bc 342b 01be
00000090: 2d63 e0bd 8970 f9bd 2749 febc a4b6 6c3d
000000a0: 88f4 25be 728f d4be 515d 4c3d fedf 413e
000000b0: f680 b63e 8dc0 9a3d 4852 cabd 5128 b13c
000000c0: b451 363e 93d1 96be 70fb 81bf 7f76 563e
000000d0: fff0 923e 732a 803f 48f6 c03d c993 94be
000000e0: cefd f43c cc41 e33d 0af7 b33e a8be c73b
000000f0: 82e3 e33d 3162 32bd d9f9 743a 943a 3b3d
00000100: dbfe 533d 8796 ff3b d890 27be eb87 96bd
00000110: 014f 39be a9d1 05be 4c5d ab3d 4e35 273e

shape f4 [1, 10]
-0.08315536 1.0300815 0.5667319 1.299162 0.44132453 0.013688996 -0.37101194 -0.017228693
1.0493743 -0.1057634
00000000: 5b4d aabd b6d9 833f 5815 113f f14a a63f
00000010: 4af5 e13e d047 603c 47f5 bdbe 3023 8dbc
00000020: e651 863f 7b9a d8bd

global_t f4 [1, 3]
0.063416384 0.15679386 2.632174
00000000: 73e0 813d 928e 203e 8a75 2840

pred_joints f4 [1, 45, 3]
0.06039878 -0.07618715 2.65151 0.11951039 0.011369154 2.6876302 0.0018480122 0.015722513
2.64467 0.047649015 -0.18506554 2.6648643 0.16063678 0.3812325 2.6496925 -0.008324124
0.3986272 2.6456048 0.056063473 -0.32847056 2.6332965 0.11597349 0.7712424 2.694197
-0.025706738 0.7129828 2.8835835 0.06643817 -0.37854627 2.6019354 0.18244681 0.8440068
2.6040316 -0.035774134 0.8182889 2.801657 0.061039228 -0.5948746 2.5911417 0.13257134
-0.5036019 2.631457 -0.013481706 -0.49772432 2.586274 0.082479015 -0.65956056 2.533662
0.22270492 -0.49472973 2.6556864 -0.10291623 -0.48936573 2.5443835 0.23204952 -0.23878428
2.7058642 -0.14315477 -0.24129817 2.5691183 0.2524182 0.0036058873 2.656431 -0.11510079
0.0060575604 2.5191326 0.25328413 0.08816392 2.652691 -0.10420554 0.08890217 2.5111318
0.09129454 -0.70121455 2.423702 0.055232234 -0.742895 2.4528897 0.1216999 -0.74268043
2.4586167 0.007605057 -0.7312721 2.5429566 0.15051419 -0.73009276 2.5562272 0.18984476
0.848565 2.5252306 0.22637498 0.854566 2.599747 0.09315633 0.79977775 2.7519543
0.0062237903 0.8520142 2.7433426 -0.06988374 0.83788896 2.7814221 -0.041511238 0.72143364
2.95297 0.20582727 0.09410986 2.5647562 0.23106146 0.16908076 2.59515 0.24165574
0.18713471 2.6249704 0.24707183 0.17755821 2.653545 0.25022146 0.15119067 2.6879241
-0.0072441623 0.074943036 2.477211 -0.047045074 0.16207096 2.4833686 -0.07338203 0.1820961
2.498165 -0.09850613 0.17638794 2.5174544 -0.12507573 0.15255716 2.5433452
00000000: b664 773d 0208 9cbd 57b2 2940 ddc1 f43d
00000010: b045 3a3c 2202 2c40 0039 f23a 80cc 803c
00000020: 4642 2940 9d2b 433d d281 3dbe 238d 2a40
00000030: f87d 243e e830 c33e 9094 2940 e861 08bc
00000040: dd18 cc3e 9751 2940 d0a2 653d 4b2d a8be
00000050: ee87 2840 8283 ed3d 2470 453f b96d 2c40
00000060: f096 d2bc 0a86 363f a28c 3840 bc10 883d
00000070: d1d0 c1be 1c86 2640 56d3 3a3e d410 583f
00000080: 74a8 2640 e687 12bd 627b 513f 594e 3340
00000090: 4504 7a3d b449 18bf 44d5 2540 c8c0 073e
000000a0: 0eec 00bf cb69 2840 60e2 5cbc b9d5 febe
000000b0: 8385 2540 c2ea a83d f6d8 28bf 8527 2240
000000c0: c20c 643e 374d fdbe c4f6 2940 bfc5 d2bd
000000d0: 258e fabe 2ed7 2240 649e 6d3e de83 74be
000000e0: e12c 2d40 2a97 12be de16 77be 6f6c 2440
000000f0: f53c 813e c050 6c3b f702 2a40 f7b9 ebbd
00000100: 807e c63b 7839 2140 75ae 813e 498f b43d
00000110: b0c5 2940 b769 d5bd 5712 b63d 62b6 2040
00000120: a2f8 ba3d cc82 33bf ef1d 1b40 323b 623d
00000130: 5e2e 3ebf 25fc 1c40 cc3d f93d 4e20 3ebf
00000140: fa59 1d40 d833 f93b a634 3bbf cdbf 2240
00000150: 6420 1a3e 5ce7 3abf 3a99 2340 aa66 423e
00000160: 8e3b 593f 619d 2140 d8ce 673e d6c4 5a3f
00000170: 4162 2640 bfc8 be3d 3cbe 4c3f 0520 3040
00000180: f0f0 cb3b 9a1d 5a3f ed92 2f40 351f 8fbd
00000190: e47f 563f d202 3240 b007 2abd e0af 383f
000001a0: 76fd 3c40 62c4 523e acbc c03d f724 2440
000001b0: 609b 6c3e 8223 2d3e f016 2640 9a74 773e
000001c0: 3ea0 3f3e 84ff 2740 6600 7d3e d2d1 353e
000001d0: aed3 2940 071d 803e bad1 1a3e f306 2c40
000001e0: 7060 edbb bc7b 993d a08a 1e40 56b2 40bd
000001f0: eef5 253e 83ef 1e40 5149 96bd 6677 3a3e
00000200: efe1 1f40 95bd c9bd 0a9f 343e f91d 2140
00000210: da13 00be f237 1c3e 2bc6 2240

detection_all f4 [1, 8]
0.0 410.91324 14.459248 678.9602 1011.0185 0.9998299 0.9999919 0.0
00000000: 0000 0000 e574 cd43 1459 6741 74bd 2944
00000010: 2fc1 7c44 daf4 7f3f 78ff 7f3f 0000 0000
